…
2018-01-28 18:40:05,914 INFO Bounds in action [[   2.  128.   64.    4.    1.]]
2018-01-28 18:40:06,001 INFO Creating object
Got data/train images in 1881 for pre-processing
Got data/validation images in 487 for pre-processing
Got data/test images in 320 for pre-processing
Found 1881 images belonging to 8 classes.
Found 487 images belonging to 8 classes.
Found 320 images belonging to 8 classes.
2018-01-28 18:40:25,583 INFO Compiling MLP model...
_________________________________________________________________
Layer (type)                 Output Shape              Param #
=================================================================
main_input (InputLayer)      (None, 128, 128, 3)       0
_________________________________________________________________
conv1 (Conv2D)               (None, 126, 126, 32)      896
_________________________________________________________________
pool1 (MaxPooling2D)         (None, 63, 63, 32)        0
_________________________________________________________________
conv2 (Conv2D)               (None, 61, 61, 16)        4624
_________________________________________________________________
pool2 (MaxPooling2D)         (None, 30, 30, 16)        0
_________________________________________________________________
flatten_3 (Flatten)          (None, 14400)             0
_________________________________________________________________
fc1 (Dense)                  (None, 256)               3686656
_________________________________________________________________
dropout_3 (Dropout)          (None, 256)               0
_________________________________________________________________
fc2 (Dense)                  (None, 128)               32896
_________________________________________________________________
dropout_4 (Dropout)          (None, 128)               0
_________________________________________________________________
predictions (Dense)          (None, 8)                 1032
=================================================================
Total params: 3,726,104
Trainable params: 3,726,104
Non-trainable params: 0
_________________________________________________________________
None
_________________________________________________________________
Layer (type)                 Output Shape              Param #
=================================================================
main_input (InputLayer)      (None, 128, 128, 3)       0
_________________________________________________________________
conv1 (Conv2D)               (None, 126, 126, 32)      896
_________________________________________________________________
pool1 (MaxPooling2D)         (None, 63, 63, 32)        0
_________________________________________________________________
conv2 (Conv2D)               (None, 61, 61, 16)        4624
_________________________________________________________________
pool2 (MaxPooling2D)         (None, 30, 30, 16)        0
_________________________________________________________________
flatten_3 (Flatten)          (None, 14400)             0
_________________________________________________________________
fc1 (Dense)                  (None, 256)               3686656
_________________________________________________________________
dropout_3 (Dropout)          (None, 256)               0
_________________________________________________________________
fc2 (Dense)                  (None, 128)               32896
_________________________________________________________________
dropout_4 (Dropout)          (None, 128)               0
_________________________________________________________________
predictions (Dense)          (None, 8)                 1032
=================================================================
Total params: 3,726,104
Trainable params: 3,726,104
Non-trainable params: 0
_________________________________________________________________
2018-01-28 18:40:25,618 INFO Summary: None
2018-01-28 18:40:25,745 INFO Done in 0.161702871323 secs.
2018-01-28 18:40:25,745 INFO Start training...
Epoch 1/20
2018-01-28 18:40:26.802783: W tensorflow/core/platform/cpu_feature_guard.cc:45] The TensorFlow library wasn't compiled to use SSE4.1 instructions, but these are available on your machine and could speed up CPU computations.
…
