…
2018-01-29 08:10:06,049 INFO Creating object
Got data/train images in 1881 for pre-processing
Got data/validation images in 487 for pre-processing
Got data/test images in 320 for pre-processing
Found 1881 images belonging to 8 classes.
Found 487 images belonging to 8 classes.
Found 320 images belonging to 8 classes.
2018-01-29 08:10:27,117 INFO Compiling MLP model...
_________________________________________________________________
Layer (type)                 Output Shape              Param #   
=================================================================
main_input (InputLayer)      (None, 64, 64, 3)         0         
_________________________________________________________________
conv1 (Conv2D)               (None, 62, 62, 64)        1792      
_________________________________________________________________
pool1 (MaxPooling2D)         (None, 31, 31, 64)        0         
_________________________________________________________________
conv2 (Conv2D)               (None, 29, 29, 32)        18464     
_________________________________________________________________
pool2 (MaxPooling2D)         (None, 14, 14, 32)        0         
_________________________________________________________________
flatten_8 (Flatten)          (None, 6272)              0         
_________________________________________________________________
fc1 (Dense)                  (None, 256)               1605888   
_________________________________________________________________
dropout_11 (Dropout)         (None, 256)               0         
_________________________________________________________________
fc2 (Dense)                  (None, 128)               32896     
_________________________________________________________________
dropout_12 (Dropout)         (None, 128)               0         
_________________________________________________________________
predictions (Dense)          (None, 8)                 1032      
=================================================================
Total params: 1,660,072
Trainable params: 1,660,072
Non-trainable params: 0
_________________________________________________________________
None
_________________________________________________________________
Layer (type)                 Output Shape              Param #   
=================================================================
main_input (InputLayer)      (None, 64, 64, 3)         0         
_________________________________________________________________
conv1 (Conv2D)               (None, 62, 62, 64)        1792      
_________________________________________________________________
pool1 (MaxPooling2D)         (None, 31, 31, 64)        0         
_________________________________________________________________
conv2 (Conv2D)               (None, 29, 29, 32)        18464     
_________________________________________________________________
pool2 (MaxPooling2D)         (None, 14, 14, 32)        0         
_________________________________________________________________
flatten_8 (Flatten)          (None, 6272)              0         
_________________________________________________________________
fc1 (Dense)                  (None, 256)               1605888   
_________________________________________________________________
dropout_11 (Dropout)         (None, 256)               0         
_________________________________________________________________
fc2 (Dense)                  (None, 128)               32896     
_________________________________________________________________
dropout_12 (Dropout)         (None, 128)               0         
_________________________________________________________________
predictions (Dense)          (None, 8)                 1032      
=================================================================
Total params: 1,660,072
Trainable params: 1,660,072
Non-trainable params: 0
_________________________________________________________________
2018-01-29 08:10:27,136 INFO Summary: None
2018-01-29 08:10:27,358 INFO Done in 0.2417948246 secs.
2018-01-29 08:10:27,359 INFO Start training...
Epoch 1/50
  1/293 [........
…
